material_classification/trainednetwork_5materials.pth (torch_old, 78832 bytes, 10 tensors)

conv1.weight f4 [6, 1, 3, 3]
00000000: b648 583d 2e6c 053d ae74 da3c 345e cebd
00000010: 7e03 1d3f bf5a a73e 05e4 803e c9f8 293e
00000020: 0d10 583d 51c4 78be 24b3 6dbe 922f a6bd
00000030: 2b23 82be 0a04 2fbd 8b0b e1be 8d02 60be
00000040: c867 bdbe 501a 14be 1649 b8bd 667b fe3e
00000050: 74d4 50be 0596 debd c453 f13e a009 363e
00000060: 19a5 153f c4a9 823f d6e6 d2bd db77 3dbf
00000070: 9306 d5be 8a9c ad3e 94ef 5abf a5af abbe
00000080: 7ac6 0b3d 186a 12bf 29ff 0abf 772f 373d
00000090: 529c 253e ab65 c63e 7c32 0bbe 2147 f33e
000000a0: 7e15 1f3f 1db7 aa3e 5a71 bfbe 84f7 9fbd
000000b0: b74e 58be bc87 96be 9c40 553f 4643 83be
000000c0: 9f23 40be c6f6 193f e9ed 803e fc21 153f
000000d0: 831b a13f a6a6 bf3e
0.052803718 0.03257387 0.026666965 -0.100765616 0.61333454 0.3268642 0.25173965 0.1659881
0.052749682 -0.24293639 -0.23212868 -0.08114542 -0.25417456 -0.04272846 -0.4395412 -0.21875973
-0.3699324 -0.14463162 -0.08998315 0.4970352 -0.20393544 -0.10868458 0.4713422 0.17777109
0.58455044 1.0208058 -0.10297935 -0.7401101 -0.41606578 0.33908492 -0.8552182 -0.33532444
0.03412483 -0.57193136 -0.54295594 0.044723 0.16172913 0.38749442 -0.13593477 0.47515205
0.6214217 0.3334283 -0.37391168 -0.07810882 -0.21123777 -0.29400432 0.8330171 -0.25637263
-0.18763588 0.6014217 0.2518151 0.5825498 1.2586521 0.3743183

conv1.bias f4 [6]
00000000: 42c6 b8bd 0de5 4b3e 4f70 ffbe 9555 ec3f
00000010: b9f3 adbe f860 52be
-0.0902219 0.19911595 -0.49890372 1.8463618 -0.33975008 -0.20544803

conv2.weight f4 [16, 6, 3, 3]
00000000: e07e 383c f042 a73d e0a0 f93d abe2 72bd
00000010: f97c d7bd 089b fa3d 7312 6a3e 86e6 83bd
00000020: 0d69 ea3d 5834 09bd ce05 23be 4360 763d
00000030: 6a4d 943d 2191 dc3c 6fb3 a23d 6025 eb3b
00000040: c3bb 24be 3b4d b7bd fb25 57be 3547 acbc
00000050: 30cb 3f3d e04a 283e 9407 233e 3c47 b3bc
00000060: 189e 8abc dd42 57bd 048c f93d 5b73 d8bd
00000070: bcc0 1cbe 1631 c6bd c1e2 ccbd dc69 70be
00000080: 7497 a6bd b3f5 cebd 6c0a b8bc 8c81 cdbd
00000090: ce32 a73d f791 1fbb 0e3a de3d c4b5 8bbd
000000a0: e12a f3bd d26a 9a3d 5dce 6e3e 5a66 fd3d
000000b0: 1081 873d 3fe1 b33d 9375 df3d f29d 243d
000000c0: 0264 d33d d5df fd3d 68e6 c93d c692 773e
000000d0: c06e 243d 2c2b 063d 9e2a 0f3e 979f 27bc
000000e0: c116 f03d 8085 a33d f691 403c c38f 7ebd
000000f0: c6d6 bdbd b252 273e 7210 253d ac31 4fbd
00000100: 2174 95bb 6c88 a83d 39a0 10be 326a 2e3c
00000110: ac82 9a3d f3e9 b03c 526a d4bd f1e3 dd3d
00000120: 9507 d9bd dcef b33d 0ea4 2ebd 1353 7c3d
00000130: 9699 c63d 4b59 fdbd 24f7 013d 3539 7b3e
00000140: 4ca9 2fbd 3f4f 9b3d 8d92 33be 0c0f 2ab9
00000150: c781 593e b9fd fabd 089b 08bc 203a 873e
00000160: 1c11 a2bd a19b a6bd 942d adbd c2f8 5bba
00000170: 92af 92bd 7b19 14be 1d0a 4e3e 543d a5bd
00000180: 2be9 c83d 757a ed3d 8c0c 64bd e8df d7bd
00000190: 8a34 793e 7396 fbbd c2d3 28be 8bd8 223e
000001a0: 6f06 b6bd 4b6e fe3c deed 2a3e 0506 9abd
000001b0: e476 f23d e85f fbbc 5cc6 bdbc 8c66 eabd
000001c0: 9a7b fbbd a58d 01be aaf4 24bd b206 9b3d
000001d0: 7bf5 94bd 54b8 43bd a00b bdbc 44e0 063e
000001e0: 6493 f93d 73bc 8cbd 1675 8dbd e08e abbc
000001f0: e437 cbbd c0ae b43c 90be 34bc 00b4 52bb
00000200: 88b3 10bd 7aca c13d 762f 8ebd f087 cd3d
00000210: 5057 d8bd b631 09be 6413 4bbd f457 05bd
00000220: 6c61 51bd 82b8 ddbd a0cf fdbd 5e9a 093e
00000230: a8d9 b2bc 0afd 70bd 4862 733d 8c29 cfbd
00000240: 6ced 643d 60d5 a6bc f2e2 a1bd dc9d 09be
00000250: b195 b3bd ba7c cc3d bce9 353d ee39 ac3d
00000260: 10e1 193d c6dc 1abd 5498 39bd 9066 4fbd
00000270: da8e 5cbd e4ed d1bd 5c46 ae3d db79 f0bd
00000280: b4f3 d3bd 6676 5bbd 6ef6 3ebe bf59 90bd
00000290: af4e e83d e9e8 22be 94b0 f33c ae3d cbbd
000002a0: edda c0bd d62c c1bd 39de f13d 7ae6 bfbd
000002b0: d91d 6c3d 676a fa3d f0bb e4bd fa32 c83d
000002c0: c950 6f3d 5b2f 74bd 2b9a 313e 419b f4bd
000002d0: 9708 c53d 6406 46be 42dd 30bd 4a10 ab3d
000002e0: 34b5 283d a671 8e3d a743 b63d c4ee 30be
000002f0: 74e0 ffbd 853a 83be 6a32 f73d 5f1f fbbd
00000300: 7c61 a8be 32b5 793e 5e1e 01bd 806a 8dbe
00000310: c8da 1b3e a6df df3d 3536 713d 243a 90bd
00000320: 04a2 cebd ee80 a43b 938f fbbc 805b 053e
00000330: ec22 aebd 03ae 23bd 037e 08be fed1 df3a
00000340: b680 d3bd 3cbe 07be adf0 9e3d 2365 a23d
00000350: 5de4 fa3d 716a e03d 0bf9 bdbd 69ca 083e
00000360: af90 f1bd f1ba 853d cd3d 3c3d c985 d5bc
00000370: baad c73d 2fb1 e23d d5ee 50be 956a bbbd
00000380: 3e26 f8bc 052d 803e 8c5d e53c 6d9b e73d
00000390: 27f3 8e3e e422 1e3e 4691 49bd d1f5 913e
000003a0: 77e2 93bc 7f76 d93d 8267 b6bc 3f5b efbd
000003b0: de9e 04be 90a2 22be e617 2abd 6085 ab3b
000003c0: 9281 3bbf 50d8 c5bd 10fb 513c 9c67 093f
000003d0: 87ca 2a3e f427 803e a759 363f bfa4 983e
000003e0: c509 623e a401 5a3f 1f5a 3d3e b398 963e
000003f0: f632 a03e 1088 743d 9821 a7bd 1d57 34be
0.011260718 0.08167064 0.121888876 -0.0592982 -0.105218835 0.12236601 0.228586 -0.06440453
0.11445818 -0.033497185 -0.15920183 0.060150396 0.07241328 0.026924672 0.079443805 0.0071760863
-0.1608725 -0.089502774 -0.21010582 -0.021030048 0.046824634 0.16434813 0.1592086 -0.021884553
-0.016921088 -0.052554 0.12184909 -0.10568877 -0.15307897 -0.09677331 -0.100041874 -0.23477882
-0.08134356 -0.10105457 -0.022465907 -0.10034475 0.08163987 -0.0024348476 0.10850917 -0.068217784
-0.11873413 0.075399056 0.23320909 0.12373038 0.066164136 0.08783197 0.109110974 0.04018969
0.10321809 0.12396208 0.098584 0.24177083 0.040144682 0.032756016 0.13981101 -0.01023092
0.1172309 0.079844475 0.01175355 -0.06214882 -0.092694804 0.1634014 0.040298887 -0.05058448
-0.004560963 0.082291454 -0.1412362 0.010645436 0.07544455 0.02159593 -0.103718415 0.10834492
-0.10597149 0.08785984 -0.042636923 0.061602663 0.09697263 -0.12370547 0.031729832 0.24533542
-0.042886063 0.07583474 -0.17536373 -0.00016218069 0.21240912 -0.12255425 -0.008337744 0.26411533
-0.079134196 -0.081351526 -0.08455959 -0.0008391255 -0.07162394 -0.14462845 0.20121045 -0.08068338
0.09810098 0.115956225 -0.055676028 -0.105407536 0.24336448 -0.12284555 -0.16487029 0.15902917
-0.08887946 0.031058451 0.16692302 -0.075206794 0.11839083 -0.03068538 -0.023165874 -0.114453405
-0.122794345 -0.1265169 -0.040272392 0.075696364 -0.07273384 -0.04778321 -0.023076832 0.13171488
0.12186316 -0.06871881 -0.06907098 -0.020942152 -0.0992277 0.022055984 -0.011031762 -0.0032150745
-0.035327464 0.094624475 -0.06942646 0.10035694 -0.105635285 -0.1339787 -0.04957904 -0.03255458
-0.0511183 -0.10826208 -0.12393117 0.13437793 -0.021832302 -0.058835067 0.0594199 -0.10115346
0.055890486 -0.020365417 -0.079046145 -0.13439125 -0.08768786 0.09984727 0.04441236 0.08409487
0.037568152 -0.037808202 -0.045311287 -0.05063492 -0.05384717 -0.10250452 0.08509514 -0.11741992
-0.10349217 -0.05357971 -0.18648693 -0.07048368 0.11343133 -0.1590916 0.029747285 -0.09923874
-0.09416757 -0.0943238 0.11809964 -0.09370132 0.057645652 0.12227326 -0.11168659 0.09775348
0.058426652 -0.059615474 0.17343967 -0.11943675 0.09620779 -0.19338375 -0.043179758 0.08352716
0.041188434 0.069552705 0.088996224 -0.17278582 -0.12493983 -0.25630584 0.120701626 -0.12261843
-0.32886875 0.24385527 -0.0315231 -0.27620316 0.15220177 0.109313294 0.058889586 -0.070423394
-0.10089496 0.0050202524 -0.03070811 0.13023186 -0.085027546 -0.039960872 -0.1332932 0.0017076132
-0.10327284 -0.13256162 0.07760749 0.079294465 0.12250588 0.10957802 -0.09276017 0.13358463
-0.11795174 0.06529797 0.045957375 -0.02606477 0.097499326 0.11068951 -0.20403607 -0.09151188
-0.030291673 0.25034347 0.027998708 0.11308942 0.27919886 0.15442997 -0.04921081 0.28507856
-0.018052323 0.106183045 -0.022266153 -0.11687326 -0.12951228 -0.15882325 -0.041526698 0.0052344054
-0.73244584 -0.09660399 0.012816206 0.5367372 0.1667882 0.25030482 0.7123055 0.2981319
0.2207404 0.85158753 0.1849141 0.29413375 0.3128888 0.05970007 -0.081607044 -0.17611356

conv2.bias f4 [16]
00000000: 4c28 04be 0120 193e 91cc c9bd 77fe dd3d
00000010: 8a3f c73e 3564 103e f7e0 b43e be7b f8be
00000020: 886f bc3d 779e 05bc 8076 ee3d 1697 2bbe
00000030: 4e6d dfbd 454f bc3d 22f3 49bd 8b52 d0bd
-0.12905997 0.14953615 -0.09853471 0.10839551 0.38915664 0.14100726 0.35327885 -0.48531908
0.092009604 -0.008155457 0.11643696 -0.16756853 -0.1090952 0.09194807 -0.049304135 -0.10171994

fc1.weight f4 [120, 64]
00000000: d806 d2bd bcc2 4fbd 2dd0 b3bb eaa2 d83d
00000010: 42d3 20be e331 c03d 6c3a 5ebd 1a35 063e
00000020: d82c dcbd 308f 093c b816 0ebd ec94 16bd
00000030: d9b1 2ebe 47a3 d1bd f55e a03b 0247 aa3d
00000040: a6e1 173e d8ed 683d dcde 733e 8907 febd
00000050: f190 10bc 740b c4ba 5551 54bc 6224 a63d
00000060: a9bf fe3d 0dc8 91bd 9c0d 653e d783 c8bd
00000070: 6e87 533e ee26 f93d 0051 053e ace6 b73d
00000080: 961e ac3d e44c 87bd c0c6 043c f039 ecbc
00000090: d584 3fbd e0ce edbb a550 e13d 142b 0ebd
000000a0: a57a 8ebd 9e2e a7bd dab7 06be 85b1 94bd
000000b0: 5c11 9abd 0f44 f23d 34ff 8abd c58b e43d
000000c0: 603c c63b bb80 e23c a885 35bd 24aa 9bbd
000000d0: 650b 213d dfcb 9ebd fd35 27bd 6d83 d43c
000000e0: ba0e 3f3c f080 cebd 654b c63d c869 013d
000000f0: 62f0 c23c 0f1b 853a 86de 4d3d 9417 9d3d
00000100: 39aa 2f3b 7e07 fdbd d2d3 813d 782e 423d
00000110: db8d e4bc 7b41 50bc cada e43d b307 293c
00000120: d0a5 623d 7006 913c 6c55 dc3d 3854 403d
00000130: 170b 823d 0aa5 1ebd fcac e5bd a75b de3d
00000140: 3f8f afbd 6367 30be e21d fabd 782b e2bc
00000150: 356c bfbc 0b90 543d f3e0 edbd 91d6 b8bd
00000160: e66e 20be a092 e4bd 3b43 3cbe 770c bbbc
00000170: a26a 4f3d 1e48 a93d efbe 323e c04a adbc
00000180: 8a1f e83d fc3c 523d c05d 4dbd a068 a33d
00000190: f2f6 913c 9af3 933d 39f5 883d e067 e43d
000001a0: b1b3 613d 8f33 0d3d 0c95 f23c 1eb2 c6bd
000001b0: 7f40 10be 06a3 d2bc 9e3c 3d3e 151b 853d
000001c0: b418 8dbd 3132 ab3d c874 303d 4f7d 6d3d
000001d0: f4f8 4dbd c80a 44bd 78f9 bfbd 1df3 98bd
000001e0: f297 a8bc b812 03bd 5440 a9bd 10af b23d
000001f0: 3036 b3bc 629b cdbc ae91 f9bd aa3d dfbd
00000200: d449 043e 709f a73c 98e1 72bd c029 38bc
00000210: 5d72 ca3b d0d5 c3bd 32ef 21bc 1ea6 1cbc
00000220: 9899 13bd d8c0 c0bd c4e4 143d f6e4 8e3d
00000230: 084f 2bbd 3ad2 01be 67a1 173d 8f98 adbd
00000240: ae49 13bd 67d1 30bd 42c6 80be ec56 99bd
00000250: 9cbd 073c 0e7f d03d c555 983d 9efb 743c
00000260: 36f7 253c 14c4 b8bd 0cb4 d9bd d697 14bd
00000270: 0b31 4d3e 402f fe3d 734b cf3d 8e8c 9b3d
00000280: 9063 68bd 20a4 eb3c 2e5d b53d 8091 473c
00000290: 6f12 8d3d 7402 063d 78fc 98bc b00f 33bd
000002a0: 2fe5 0cbd 6db6 173d 0fb5 83bd 2a7f 44bd
000002b0: 930c 643d d1e6 f3bb ca00 f53d 3886 cfbc
000002c0: f237 d83d 1044 033c b0e0 733c 6928 52bd
000002d0: 10fa da3c ba6b 983d 9788 cfbc 89e7 3e3c
000002e0: 34fa 02bc 94f8 ffbd a710 c2bd d022 a1bc
000002f0: a46d 553d 198e 763d b804 02bd 51fa eebd
00000300: 43cb d3bd a013 433d 1e29 f6bd a423 b9bd
00000310: f755 d93c be0e fa3d 40ae cd3d 30b5 2dbc
00000320: dce1 febd e84d bbbc 9cd2 4ebd 74f9 2fbd
00000330: 7ef8 063c f963 8dbd 419c c6bd 54dc 38b8
00000340: df54 ad3d 87c0 543c a3c1 76bc 8139 17be
00000350: e445 3e3c 5714 b2bd 178a e9bc 31c1 9d3d
00000360: c7e2 493d d404 903d 637f b8bb 6078 8e3d
00000370: e32c b43d f008 f9bd fd28 50bd 2038 ac3c
00000380: 307d 883d 70fd 873c ec61 d8bd 4893 c73d
00000390: 874c 6abd 3062 f03c 59f8 593d b2e6 d5bd
000003a0: c19f bcbd 2ab2 e13c fe98 0abe 89bc 36b9
000003b0: b887 1bbd 0210 83bd 0598 00be dadd bfbd
000003c0: a47d 6f3d 7ed3 943d 8074 fb3c d40e 863d
000003d0: 7788 893a 7655 d5bd 35b1 a7bd 8dab ca3d
000003e0: 684c da3c 26bd d93d c04f 3fbc 8467 563d
000003f0: 7c98 893d 02f6 a33d 7a49 bdbd 10df 6a3d
-0.102552116 -0.050722823 -0.005487463 0.105779484 -0.15705588 0.09384515 -0.054254934 0.13106194
-0.10750741 0.008395955 -0.034689635 -0.036763117 -0.17060031 -0.10236221 0.0048941323 0.08314325
0.14832172 0.05686745 0.23815483 -0.12403781 -0.008823619 -0.0014957027 -0.012958844 0.08112408
0.124389 -0.07118235 0.22368473 -0.097907715 0.20657131 0.121656284 0.1301918 0.08979544
0.08404271 -0.066064626 0.008104026 -0.02883622 -0.046757538 -0.0072573274 0.1100171 -0.03470905
-0.06956986 -0.081631884 -0.13156071 -0.07260422 -0.07522842 0.118293874 -0.067869574 0.111594714
0.0060496777 0.027649274 -0.044316918 -0.07600811 0.039317507 -0.07753729 -0.04082297 0.025941575
0.011661226 -0.100831866 0.09682349 0.03159502 0.023796264 0.0010155159 0.050261043 0.07670513
0.0026804341 -0.12354945 0.0633923 0.047407597 -0.027899673 -0.012710924 0.11174543 0.010316777
0.055333912 0.017703265 0.107584804 0.046955317 0.063497715 -0.038731612 -0.11214635 0.10857325
-0.08572244 -0.17226939 -0.12212731 -0.027608618 -0.023367027 0.051895183 -0.11615171 -0.090253
-0.15667304 -0.11160779 -0.18385021 -0.022833092 0.050638802 0.082657084 0.17455648 -0.021153808
0.113341406 0.05132769 -0.050138235 0.0797894 0.017817948 0.07224198 0.066873975 0.11152625
0.055103008 0.034473 0.029612087 -0.09701942 -0.14087103 -0.025712501 0.18480155 0.06499306
-0.06889477 0.083591826 0.04308012 0.05798083 -0.05028625 -0.047861844 -0.09373754 -0.07468245
-0.020580266 -0.032000273 -0.08264223 0.08724797 -0.021876425 -0.025098506 -0.12185989 -0.10900433
0.12918788 0.020461768 -0.059297174 -0.011240423 0.006178184 -0.09562266 -0.009883689 -0.00956109
-0.03603515 -0.09411782 0.03635098 0.069772646 -0.041823417 -0.12677851 0.03701916 -0.08476364
-0.03595894 -0.04316845 -0.2515126 -0.07487282 0.0082849525 0.10180484 0.07438234 0.014952568
0.01012974 -0.09021774 -0.10630044 -0.036277615 0.2003824 0.12411356 0.10121813 0.07595168
-0.056735575 0.028764784 0.08855663 0.012180686 0.068882816 0.032717183 -0.018675074 -0.043716133
-0.034398254 0.03703921 -0.064310186 -0.047972836 0.055676054 -0.007443287 0.11963041 -0.025332555
0.10557546 0.008011833 0.014885113 -0.05130807 0.026730567 0.07442422 -0.025333686 0.011651882
-0.007994223 -0.124985844 -0.094758324 -0.01966992 0.052106515 0.06019411 -0.03174278 -0.11668838
-0.103415035 0.047626138 -0.12019561 -0.09040001 0.026530249 0.12209843 0.10043001 -0.0106022805
-0.12445423 -0.022864297 -0.05049382 -0.042962506 0.008237956 -0.06903834 -0.09697772 -4.4074215e-05
0.084634535 0.012985355 -0.015060815 -0.1476803 0.011613343 -0.08695286 -0.02850823 0.07702864
0.049288537 0.07032171 -0.00563042 0.069565535 0.08797624 -0.12159908 -0.05082034 0.021022856
0.066645026 0.01660034 -0.10565552 0.097448885 -0.05720189 0.029343694 0.05321536 -0.10444392
-0.09210158 0.027550776 -0.13534924 -0.00017427107 -0.03797123 -0.063995376 -0.12557991 -0.09368487
0.05846943 0.072669014 0.0306952 0.06545797 0.001049294 -0.10416691 -0.081880964 0.09896002
0.026647761 0.1063178 -0.011676729 0.052344814 0.06718537 0.08005907 -0.0924253 0.057341635

fc1.bias f4 [120]
00000000: db8b 023e 2af3 44be 4106 143c c589 103d
00000010: 4201 01be d009 5b3c d3fb 89bd f3c3 c8bd
00000020: 5bf7 1fbe aa09 8abd 0715 f83c 0404 d03d
00000030: d87e 01bd 4f74 5bbd 1514 b8bc 2e2d ed3b
00000040: 0eee af3d 571f 173c e83c d23d 8d00 69bd
00000050: aac5 88bd a569 353e 5474 5abd feda ec3d
00000060: 3421 90bd 7c33 d83c 80ef e73d ec04 2f3c
00000070: 21e4 9abd b649 ac3c 30bb 233e eb24 84bd
00000080: d525 1fbe c028 d8bd 1881 403d 2ef4 dc3d
00000090: 5223 d1bd 2fda e6bd 49a1 bcbd 18c8 723d
000000a0: 41ff 1cbd 1890 54bd ed7f 38bc a4a8 0b3e
000000b0: ef22 8abd 5862 533b 2b16 aebc 29fa 14be
000000c0: 4bc8 c2bb 4139 5b3d 759b d1bd 7f26 0cbe
000000d0: 236a c53d 129c 0ebd 7de1 853c 1dba f43d
000000e0: 0291 fbbc ca61 0f3e 4cf4 ed3d 6951 0b3d
000000f0: f0e7 303c 11ce 873c 188b c2bd 249c 73bd
00000100: daa8 cdbd 6cf2 eb3d 96d1 ec3d 7a4e 4d3c
00000110: c522 ac3c 7412 bb3d 39cc 313e ea83 bebd
00000120: bd78 a43d a3a3 cebd 5d2c 97bb 31ca 1cbd
00000130: 189d a33d b87b 3ebd a2a9 e9bc 845a e3bd
00000140: 68a0 913d eb0a 26b8 8c03 253e eec4 b8bd
00000150: 2138 483c e56f 003e f853 ecbd 6a76 c33d
00000160: ce5c 06bd ae86 3d3b 0fc9 cd3d d9eb 213d
00000170: a23c b93d 6e80 70bd 8842 1ebd da03 423d
00000180: 82c3 16be 63c1 f3bc 12a4 2bbd 5d55 2c3c
00000190: dd75 183e aa91 12be 2c2a 4d3b 0b31 953d
000001a0: e088 62bd 92ad 44be bab2 f5bd d25a 40bc
000001b0: 0093 a8ba 99e4 1bbd 4c3f 2c3e 21b4 55bd
000001c0: d459 9e3b 7815 aebd 63c2 163d c5c8 523e
000001d0: 50be c63d 5f88 2bbc 8a06 943d 62f6 9e3d
0.12748663 -0.19233385 0.009034694 0.035287637 -0.12598136 0.013369039 -0.06737485 -0.09802999
-0.15621702 -0.067401245 0.030283464 0.10157016 -0.03161511 -0.053577717 -0.022470513 0.007238052
0.08590327 0.009223781 0.10265523 -0.05688529 -0.066783264 0.17716081 -0.053333595 0.11565207
-0.07037583 0.026391737 0.11324978 0.010682326 -0.075630434 0.021031242 0.15989375 -0.06452354
-0.15541776 -0.105546474 0.046998113 0.10788761 -0.10211815 -0.11272084 -0.0921045 0.059272856
-0.038329367 -0.05189523 -0.011260969 0.1363855 -0.06744944 0.0032254662 -0.021250805 -0.14548554
-0.005944287 0.0535214 -0.10234729 -0.1368656 0.096393846 -0.03481681 0.016342873 0.11949561
-0.030708794 0.14002147 0.116188616 0.034013186 0.010797486 0.016577752 -0.09499186 -0.05947508
-0.100419715 0.11520848 0.11563413 0.012530917 0.021012673 0.09134379 0.17363061 -0.09302504
0.080308415 -0.10089805 -0.004613443 -0.038278762 0.07988948 -0.046504706 -0.02852327 -0.11101249
0.07110673 -3.9587652e-05 0.16114634 -0.09021936 0.012220413 0.12542684 -0.11539453 0.0954407
-0.03280335 0.0028919387 0.100481145 0.039531562 0.09044768 -0.05871623 -0.038637668 0.047366954
-0.14723018 -0.0297553 -0.041904517 0.010518399 0.14888711 -0.14313379 0.0031305654 0.07284745
-0.055306315 -0.19206837 -0.1199698 -0.011740403 -0.0012861192 -0.038059805 0.16821021 -0.052173737
0.0048324857 -0.085001886 0.036806475 0.205844 0.09704268 -0.010469525 0.0722781 0.077618375

fc2.weight f4 [84, 120]
00000000: 5d53 083c cfa3 743d 775c 97bd 7898 343d
00000010: 264c 923c cdb6 65bd 172b 703c ad11 883d
00000020: 5d13 e1bd b785 b5bc cc8b 24bd 1b92 b6bd
00000030: 4768 fa3c d1d8 6e3d 86c4 75bd 1ffc 033d
00000040: b261 3f3d 94d7 d7bb a0e8 e2bc 1229 913d
00000050: 9ccc a6bd 0895 f23c 600e 0f3b da23 e7bd
00000060: 1598 8ebd 8de0 8a3c 3674 4fbd 5aea 143d
00000070: 36bf 0b3b 8266 bfbd 1893 99bd c624 ba3d
00000080: 3330 a93c 2715 993d 5a3a debc 2f9a 613d
00000090: 581d 303d 8f68 48bb 9ea3 84bd 733a d53d
000000a0: 5e05 00be 8e9c 3c3d 5129 11bd bcd0 bc3d
000000b0: 05a8 8abd df3d d73d 149f c93b 01e1 b23d
000000c0: c99e a6bd e7d3 b93d 76d4 a63d ee94 2b3d
000000d0: ca80 173d 8590 353d 310e 0dbe 6965 59bc
000000e0: 24ba ae3d ebfd febc 73f6 73bd 6619 c3bc
000000f0: b027 7c3d 3f23 1d3c 9ac6 0e3d 57ee 703d
00000100: 1c7e d53d a3f5 143d af99 13bd bfcc a3bd
00000110: a873 77bc 5065 ad3d 83f3 0c3d 4472 d13c
00000120: b6f9 193d f768 993d 1db1 ccbd 2436 babd
00000130: bafb 333d 581f dbbc e862 aabd bb4e e5bc
00000140: 2dc2 ce3c d9c1 173c 230f 8439 6dc2 72bd
00000150: 1a23 983d 6e68 133b aa2c 0abd c8fa 973d
00000160: df1d 803d 5c32 9c3c 8177 9abd 5ffd 2e3d
00000170: 3e8d 08bd 3bcc c73d 2003 453d d8b4 2fbd
00000180: 3180 e0bc 40b9 44be b652 a3bd e013 60bd
00000190: 3b1d 90bd 5e3d 023d 3940 aabd 87b6 09bd
000001a0: 049d 743d 73ed a13d fb8e 893d 0a0e 3a3d
000001b0: 04c9 6a3d 52a9 a2bd c7c8 50bd 5c00 4e3d
000001c0: d269 37bd 3076 773d 5434 ffbd 20ad 23bd
000001d0: dfc0 533d d4d6 7cbb b990 e43c fa7d 843d
000001e0: 4292 98bc a0b9 373d 5e75 2bbd 5a23 a33d
000001f0: 6f2e abbd 603a b3bc 72f2 efbc f69a 88bd
00000200: 6fb3 a7bd e4b2 93bd bd62 7fbb 355f 89bd
00000210: 9a46 0d3d 1aff a6bd 3cf6 4fbd 6ceb 2d3d
00000220: a6a8 373d 6174 3ebd 9cae 923d df90 12bd
00000230: 32e5 85bd 5580 e7bc 3aef 80bd 50e2 93bd
00000240: 76d9 8f3d 0c7c 91bd 1ef2 3a3d 1e45 85bd
00000250: d8d2 0c3d dd39 8cbc bf13 9bbd f46a 9ebd
00000260: b8b6 a13c ecfc 1cbc ea19 ba3d f9ea abbd
00000270: 3ec1 73bd 6795 84bd 00d0 e9b7 98ef 33bd
00000280: de33 abbd a6b2 a4bd 40ee 5d3d b589 86bd
00000290: 201a a3bc 446e 183d 10f4 0a3d f208 adbd
000002a0: a3c3 a7bd 16d5 1fbd a02b 873c 8c6e aebc
000002b0: 6269 25bc 88a9 79bc 3ead a23d f630 14bd
000002c0: 0580 093b 11f4 5c3d 2ced a43b 1a83 ef3c
000002d0: e64b 79bd 5da4 8bbc 25a1 70bd 8b98 8dbd
000002e0: 1c57 79bd 87a4 cb3c 35e6 30bd 2573 ae3d
000002f0: e590 a1bd 60bd cb3c 83d4 c3bc bd3b 2bbd
00000300: b733 33bd 4a7c 5fbd 8b38 38bd 407b b1bc
00000310: 809c 033d a864 e4bc 941e 263d 85eb 5cbc
00000320: 6c03 7abd 5ade 613d fa5d 87bd 5a4f b53d
00000330: 75ca f0bc 999d 77bc a28b 2a3d 6c65 63bd
00000340: 0025 523d a091 a43d 60e8 3e3c 2f5d 92bd
00000350: 72f2 9abd 0d57 a3bd a1fc 27bd c9a1 b73c
00000360: 986a 8d3c 5f61 6bbd 1f0a 533d 582c 873d
00000370: 6a02 8a3d 3be1 d8bc 7bd3 b63d 4378 00bd
00000380: 940d 84bd ec6d 0c3d afbc 21bd 7ab6 00bd
00000390: 48ad 6a3d 702b 6c3c 00da 1b3d 8645 aebd
000003a0: 8b57 f0bc d016 85bb c5b9 84bd 3261 1b3d
000003b0: 62b1 ab3d 3c50 483d 2961 3abd e1ac 7c3d
000003c0: d4fc 223d 1c55 28bc c98c cabc 61ad 403d
000003d0: 579e 133b 4cc2 223d 8a45 85bc b8c5 18bd
000003e0: 8f3b 403c 02dc b03d cd7b 833d 88b1 bb3d
000003f0: af09 7b3d 2e94 763d 5ed6 6a3c f321 f9bc
0.008320657 0.059726533 -0.07390683 0.044090718 0.017858576 -0.056082536 0.014658711 0.066439964
-0.109900214 -0.022158487 -0.040172383 -0.08914586 0.030567301 0.05831224 -0.060001872 0.032222863
0.04672403 -0.006586978 -0.027698815 0.07087912 -0.08144495 0.02961208 0.0021828637 -0.11286135
-0.06962601 0.016952777 -0.050647937 0.036356308 0.0021323687 -0.09345724 -0.07498759 0.09089045
0.020652866 0.074747376 -0.027127434 0.05507868 0.042996734 -0.00305799 -0.0647652 0.10411539
-0.12502047 0.04604774 -0.035439793 0.092195004 -0.067703284 0.10509848 0.006152997 0.08734322
-0.081357546 0.0907362 0.081459925 0.041890077 0.036988057 0.044327278 -0.13774945 -0.013268807
0.08531597 -0.031126937 -0.059561204 -0.023815822 0.061561286 0.009590923 0.03485737 0.05882105
0.10424444 0.03636707 -0.036035236 -0.079980366 -0.015103258 0.084665895 0.03441192 0.025567181
0.03759166 0.074907236 -0.09994719 -0.09092358 0.043941237 -0.026748344 -0.08319646 -0.027991643
0.025239075 0.0092625255 0.0002518828 -0.05926745 0.0742857 0.0022492665 -0.033734 0.074208796
0.062556975 0.019066982 -0.07542325 0.042722102 -0.033337824 0.09755751 0.048098683 -0.042897075
-0.027404876 -0.19211292 -0.0797476 -0.054706454 -0.07036825 0.031796806 -0.08313031 -0.033621337
0.059720054 0.07906618 0.067167245 0.045423545 0.05732061 -0.079424515 -0.050972726 0.05029331
-0.044778652 0.060415447 -0.12461153 -0.039960027 0.051697608 -0.0038580196 0.02790104 0.064693406
-0.018624429 0.04485476 -0.041859977 0.07965727 -0.08358466 -0.021878421 -0.029290412 -0.066701815
-0.08188521 -0.07211855 -0.0038968765 -0.067076124 0.03449116 -0.081541255 -0.050771937 0.042460844
0.04483857 -0.046497706 0.0716221 -0.03578269 -0.06537856 -0.028259436 -0.06295629 -0.072209
0.07023899 -0.07103738 0.045641057 -0.06507324 0.034380764 -0.017117435 -0.07572126 -0.077352434
0.019740447 -0.009581786 0.09086974 -0.08394427 -0.059510462 -0.06473809 -2.7872622e-05 -0.043929666
-0.08359502 -0.08041887 0.05418229 -0.06569234 -0.019909918 0.037214532 0.033924162 -0.08448972
-0.081916116 -0.039021574 0.016500294 -0.021292947 -0.010095926 -0.015238173 0.079431996 -0.036179505
0.0020980847 0.053943697 0.005033156 0.029237319 -0.060863398 -0.017046148 -0.05874743 -0.06913861
-0.06087409 0.024858726 -0.043188293 0.08518056 -0.078889646 0.024870574 -0.023905044 -0.041805018
-0.04375049 -0.05456189 -0.0449758 -0.021665215 0.032131672 -0.027880028 0.040556505 -0.013483887
-0.06103842 0.05514369 -0.066097215 0.08853026 -0.029393414 -0.015113258 0.04163707 -0.055516645
0.051304817 0.08035588 0.011652082 -0.071466796 -0.07565774 -0.07975588 -0.04101241 0.022416012
0.017262742 -0.057465907 0.051523324 0.06600255 0.06738742 -0.026474586 0.089270554 -0.03136469
-0.06447902 0.034284517 -0.039486583 -0.031424023 0.05729416 0.014414653 0.038049698 -0.08509354
-0.029338619 -0.0040615574 -0.06480745 0.03793449 0.083834425 0.048904642 -0.045502815 0.061688308
0.039791897 -0.010274198 -0.024725335 0.047040347 0.0022524798 0.039736077 -0.01626851 -0.037297934
0.01173295 0.08635713 0.064200975 0.09164721 0.061288532 0.06019991 0.014333336 -0.030411696

fc2.bias f4 [84]
00000000: d791 2fbd e1a0 bbbd 2ca4 4bbd 89b5 16be
00000010: 6ee0 4a3d 8721 6b3e 008e 993a 7c01 abbd
00000020: 0598 9c3d 9882 f3bd d8c3 383d 5f55 8cbd
00000030: 99a5 ecbd aefb bbbd ca18 823b b9a3 773e
00000040: a1c5 64bd 403c 7cbd 4c6d 53be 5872 9ebd
00000050: 2c20 c93d a40f 3e3d 91ce 80bd 8457 8abe
00000060: 2405 8bbc 0031 a8bc 3e3e 143b eb1b 043e
00000070: adcd 813c bb92 293e 4baf af3c 3bf7 8ebd
00000080: 8017 763d e53b 503b ecbb 803c 4789 e93c
00000090: 2fde c53e c8dc 3c3e 980d 0ebd 89ae f6bc
000000a0: 99e3 0abe a520 aabd 0aef c73d 5685 1a3e
000000b0: 6de1 013e 41ff c93a 048b c5bb ab98 883d
000000c0: ba91 d63d f690 b53c beb3 523d 96c3 503d
000000d0: dd53 6fbd d0d4 8fbd 32fc 01be 4459 27be
000000e0: 1175 11bc 2619 01bd a1f4 48bd 092e 283c
000000f0: 230e f03c 9a7c 4fbc 38fd d63d a41f d1bd
00000100: f46b bbbc e62b 06be 23d0 4b3d 5071 8e3d
00000110: 933b a03c 8772 40bd 3fb8 043e 956b ae39
00000120: 684a 91be 64bf 7f3c f62a 393c ff1d 303e
00000130: 69b7 a3bb 2203 dcbd df1a 9e3b 3648 afbb
00000140: 53bc 71bd 4d42 e6bc 9b22 863c 7a95 cd3c
-0.042863693 -0.091615446 -0.049717113 -0.14717688 0.04953044 0.22962008 0.0011715293 -0.083498925
0.07646183 -0.11890143 0.045108646 -0.06852221 -0.11555023 -0.091788635 0.0039702402 0.24183549
-0.055852536 -0.061580896 -0.20647162 -0.07736653 0.098205894 0.046401635 -0.062893994 -0.27019894
-0.016970225 -0.020531178 0.0022620107 0.12901275 0.015845144 0.1655988 0.02144589 -0.06980749
0.060081005 0.0031773981 0.015714608 0.028507842 0.38646075 0.18443596 -0.034680933 -0.030112522
-0.13563384 -0.08307008 0.0976239 0.15089926 0.1268365 0.0015411155 -0.006028535 0.06669744
0.10477014 0.02216385 0.051440947 0.050967775 -0.058429588 -0.07023013 -0.12693861 -0.16342646
-0.008878008 -0.031518124 -0.04906142 0.010264882 0.029303616 -0.012663985 0.104975164 -0.10211113
-0.022878624 -0.13102683 0.04975904 0.069552064 0.019559657 -0.04698422 0.1296091 0.0003326802
-0.2837708 0.015609596 0.011301747 0.17198943 -0.0049962294 -0.10742785 0.0048249806 -0.0053491844
-0.05901749 -0.028107787 0.016373923 0.02509569

fc3.weight f4 [5, 84]
00000000: 270e 4c3e eba8 8f3d 04ee 0ebe b4de 05be
00000010: b3a2 c5bd 1879 1ebe 803f 623c bb74 d63d
00000020: 9e36 c6bc 35b5 493e 1403 fabc 873e c6bd
00000030: 9a5f af3d 1f93 963e d168 a73d 794d 953d
00000040: aad4 8abd ef3d 773c 3997 4e3c 3947 7fbd
00000050: e7ef 05bd a146 b23d e031 833d 2d5e aebb
00000060: 2e9b 713d 19f1 c8bd ea88 bf3d 0fc8 41be
00000070: 881c b1bd 09e3 f5bd 66e4 8f3d 87d2 abbd
00000080: 0472 1c3e 14d2 15be c08e 87ba e520 46bd
00000090: 9358 9dbe c96a 77be ca8f 253d 2d50 063d
000000a0: f295 8c3e 2dfd 12be 3694 c5be 8c5a 11bd
000000b0: eb70 7bbd 6e2b 1b3e 92ad 1cbd bfce d43d
000000c0: 682d d8bd 887b 25bd a342 37bd 0652 60be
000000d0: bdda 233e e221 3a3e cfc6 513c ad64 fe3e
000000e0: 118d 7abc b43f f6bc 7cdf 43bd efa6 15bd
000000f0: 7e45 983d 2529 123c 6a2e 23bc 6489 cd3d
00000100: 4152 a23d d03e 01be 0d9a 89bd 972e b7bd
00000110: 363a 073d a660 c43d bfb8 0c3d 2775 08bc
00000120: e685 b63e ee78 af3d e3e1 073d 39f5 2ebe
00000130: 9cb5 873d 2f8f 273d 79d0 763e 7e8c 98bb
00000140: 0c97 ea3d 158a 2e3e c91f 79bd f71c 193d
00000150: adcb 3bbe 2794 933b 7c52 073e be6e bc3d
00000160: 784e 72bc 1974 973e 3036 14bd 00bd ff3b
00000170: 6e92 23be 31ee 00bd 2a85 b2bb de34 d73d
00000180: e99a 013c 06f1 2dbe e14d d33d 73b0 ffbd
00000190: dfd7 913d e9ef 80bd 59aa 23be a419 833d
000001a0: 1e4e d0bd 7034 b13b 966b 743d 6769 8fbe
000001b0: 2a7f 87bd 2340 9b3d 08f3 873d 5bba ef3d
000001c0: 975e 55be 0e37 f43d 9a17 21bd d9d3 acbc
000001d0: 1a05 38bc 3289 2cbd 0453 c5bc 0a3f a9bb
000001e0: 75cc 953e 1e96 873e b2ea 6fbd 571a f5bd
000001f0: 195b bfbe 96c0 03bd 7d8a 663e 83e1 4f3e
00000200: 1cab 503e 82c5 a2be 38c8 803e ab8f 1cbd
00000210: 6a69 883e ca23 453c 7b1d d1bb 9944 9d3d
00000220: 3c51 9ebe 7503 07be 46d4 a3bb 4ae5 30bf
00000230: 2af2 af3d 7e85 003e 33d7 bfbc d45a d63d
00000240: ccf5 48bd c757 17bd 2473 953d 84b7 7c3d
00000250: 7ced 02be 7714 083d 65d8 833e f75d 873b
00000260: d96a 8cbd 5217 8bbd f703 5abd 32df 383e
00000270: 6562 afbe e226 9e3b 7055 34be c783 c93d
00000280: 2576 6bbd 2174 19be 85ad 95be 4006 a5bc
00000290: 9b12 afbc ab57 bdbe bfe2 b43b b37b 183d
000002a0: 4152 7e3e 11e5 acbd e628 07be dfce a9bd
000002b0: 0013 2a3c 5e5b 123d fe02 453d 65bd ab3d
000002c0: 8934 933d 7975 85be d15f 133e 32bf 95bc
000002d0: 3446 433d b402 7539 ec6a 1bbd fb63 563e
000002e0: 26f1 bd3d 971b 2abe 2d79 3cbe 5033 5dbb
000002f0: 073f eabb d0f5 abbd 3c49 513d 372e 4bbe
00000300: a6e6 0ebd ac89 3abd 6471 7e3d 2ccf 053a
00000310: 38de 173d b6fb aebd 737f e1bd 72e4 683d
00000320: fc3b 533e 5be9 febc 03bf c9bd f274 3e3e
00000330: 9935 ee3d b571 903d e180 8dbd f562 d63d
00000340: 3914 5b3d 5f11 1bbe 56a2 27bd 9304 aabd
00000350: 8de8 0b3e 76ae 163e ca1c 72be 1897 3c3c
00000360: 5e52 8abd b47e 6bbd a976 9cbd fa7c 723d
00000370: f2f8 d6bd 5d4d 5d3e da98 ddbc ca47 a43e
00000380: 83cd 51bd e73f 5abe 3f28 ccbd ef2a 28bd
00000390: 7b1a 123e d28b a93d e888 71be 3975 bb3d
000003a0: 72ef 35bb 86ab 19be 6d31 5dbe 6cbc 303e
000003b0: e794 b03d ca80 793e 7ba5 ff3d e9b6 79be
000003c0: 6cbd 58be c89a 64bd dad0 7abd f10f c0bd
000003d0: d431 053d b5ec 913d af54 a13d cba7 3c3d
000003e0: 1272 933d 9616 3d3e f4f1 0b3e 0630 e7bc
000003f0: a333 3f3e 9a27 3b3d 74e6 af3d 38ab 3c3e
0.19927274 0.070146404 -0.13957983 -0.13073236 -0.09650173 -0.15475881 0.013809085 0.10471483
-0.024195965 0.19698031 -0.030519046 -0.09679895 0.085631564 0.2940912 0.08174289 0.07290167
-0.06778844 0.01509045 0.0126092965 -0.062323783 -0.03269949 0.08704878 0.06405997 -0.005321285
0.05898588 -0.09811611 0.09352286 -0.18923973 -0.0864802 -0.12006194 0.070259854 -0.08389764
0.15277869 -0.1463092 -0.0010342225 -0.048371214 -0.3073164 -0.24161829 0.04042033 0.032791305
0.2745815 -0.14354391 -0.38589638 -0.035486743 -0.061386984 0.15153286 -0.038251467 0.10390996
-0.105555356 -0.04040101 -0.044741284 -0.2190629 0.16001411 0.18176988 0.012803747 0.49686185
-0.015292422 -0.030059673 -0.047820553 -0.036536153 0.074351296 0.008920942 -0.009959796 0.10035971
0.07925845 -0.12621617 -0.06718836 -0.08944433 0.0330145 0.09588747 0.034355875 -0.008328713
0.3564903 0.085679874 0.033174407 -0.17085733 0.06626436 0.040908035 0.24102964 -0.00465542
0.11454591 0.17044862 -0.06082133 0.03738114 -0.18339415 0.004503745 0.13215059 0.0920081
-0.014789216 0.29580763 -0.03618449 0.007804513 -0.15973827 -0.031477157 -0.0054480033 0.105081305
0.007910469 -0.16986474 0.103175886 -0.12484827 0.07121252 -0.06295759 -0.15982951 0.06401375
-0.1017115 0.0054078624 0.059672914 -0.28010103 -0.066160515 0.075805925 0.066381514 0.11705466
-0.20836864 0.11924563 -0.03932915 -0.02109711 -0.011231685 -0.042123027 -0.024087436 -0.0051649855
0.2925755 0.26481718 -0.058573432 -0.119679146 -0.3737419 -0.032166086 0.22513767 0.2030087
0.20377773 -0.31791312 0.25152755 -0.03822295 0.26642925 0.012032459 -0.006381688 0.076790996
-0.30921352 -0.13184913 -0.00499967 -0.6909987 0.08591111 0.12550923 -0.023418045 0.10466543
-0.049062535 -0.036948945 0.07297352 0.06169845 -0.12785906 0.03322264 0.25751033 0.0041310745
-0.06856317 -0.06791557 -0.053226437 0.18053892 -0.34254757 0.0048264125 -0.17610717 0.09839588
-0.05748572 -0.14985706 -0.29233947 -0.020144582 -0.021371176 -0.36980948 0.0055201943 0.037227344
0.24836065 -0.084421284 -0.13199195 -0.08291411 0.0103805065 0.035731666 0.048098557 0.083857335
0.07187755 -0.26066187 0.1439202 -0.018279646 0.047674373 0.00023366028 -0.037943766 0.20936577
0.09274511 -0.16612087 -0.184056 -0.0033752508 -0.0071486267 -0.083964944 0.051095232 -0.19841848
-0.034887932 -0.04554145 0.062119856 0.00051044184 0.03707716 -0.08544104 -0.11010637 0.056858487
0.20628351 -0.031117132 -0.09850886 0.18599299 0.11631317 0.07052938 -0.06909347 0.10468093
0.053486083 -0.15143345 -0.0409263 -0.08301654 0.1366293 0.14714989 -0.23643795 0.011510633
-0.067539915 -0.05749388 -0.0763982 0.05920122 -0.10496701 0.21611543 -0.027050424 0.3208602
-0.051221382 -0.2131344 -0.09968614 -0.04105657 0.14267914 0.08278622 -0.23587382 0.09153218
-0.0027761129 -0.15006837 -0.21600886 0.17259377 0.08622151 0.24365535 0.12482735 -0.24386181
-0.21166009 -0.055811673 -0.061234333 -0.093780406 0.032518223 0.071252264 0.0787748 0.046058457
0.071994916 0.18465647 0.13666517 -0.028221142 0.18672042 0.045692064 0.08588877 0.1842469

fc3.bias f4 [5]
00000000: 5f3c 113d 1879 c33e e50f 213e 77ff 4dbf
00000010: 1dab c93e
0.035457965 0.38178325 0.1572872 -0.80467933 0.39388362
